bp/models/BP_model.pth (torch, 12439 bytes, 6 tensors)

fc1.weight f4 [49, 20]
00000000: 5221 333e 7421 263e 5495 e13e 913f cd3d
00000010: c25b 9d3e 1660 143d d412 8b3d 56bf 9bbd
00000020: 2bf6 c9bd f897 a13c c0e3 58bb 4e4b 1bbe
00000030: 5662 683e eb75 8bbe 047b 5dbd cc5e bebe
00000040: df25 b7be bf2f 313e bb47 d9be fef5 b33e
00000050: 3676 003d ddc1 45be 9cf5 3a3e 9eba dd3d
00000060: 50a8 25bd c1b1 c5bd 3bf7 b4be 4062 e33e
00000070: 54f2 7cbe 45a6 33be b0ef 46be 1df1 eabd
00000080: 812a 193e d6b0 9a3d 1d7c adbe b6ff debe
00000090: b493 ae3b f5f3 03be de48 cb3d 6db3 8e3e
000000a0: 58fe 533e b8a1 d83c ae1f 193d 168c 85bd
000000b0: 24be a4be 9340 99be 490b 113e 947a b63e
000000c0: b922 8f3e 82b6 343e d68b 96be 1d63 2ebe
000000d0: 566d bc3d faf2 f4bb 2f37 df3d 6c8e 2b3c
000000e0: b36a 84be 3667 123e 8598 253e ea64 de3d
000000f0: 8ed4 e83d b28e 0c3e ce13 5e3c fb3e b5be
00000100: 0dd5 54bd 06de 32be 3e46 213e b6ce 60bd
00000110: 6d22 503e 6a4e 8e3d 7bcc 1b3e 021c 293e
00000120: 0918 283e c539 043e 8662 263e ec5f ee3e
00000130: 628b 973d a2be 853d 0e56 a1bc 8f49 5ebd
00000140: 2549 03be 5c82 de3d f440 c3bd 5cfe 413e
00000150: d996 5d3e 59db 55be 67e9 843d 1285 12bf
00000160: 21cd bc3d 088b 0ebd d873 74be 77d9 12be
00000170: ca8c aa3d 242c d63d 8519 463e 0ab3 4ebd
00000180: 2bb7 803d 54b9 10be 7229 9bbe aa43 b6bd
00000190: 5be8 3f3d 3654 db3d 3de8 5f3e 2aef 0abe
000001a0: bc67 d23d a90e 71be b697 25bd 9594 b6be
000001b0: 2305 3a3e a542 3a3e d7d2 9fbe 8825 73be
000001c0: 5b2e bb3d 2649 6b3d 7c57 2ebe 60ef 103e
000001d0: fe4e b93d ec41 603e a066 e3be f832 59be
000001e0: f9c5 d4be 3d3d 4c3e da21 b23e 4b3e 99bd
000001f0: 5162 a23d 7bb6 4c3e f85a bbbe 49f0 f63d
00000200: a2d0 813c 7685 dfbd dd88 36bc bf74 1f3e
00000210: 26ab 37bd 156b 15bd 477a a03e 2ebf c0be
00000220: dbe5 d3be f21c 4b3e defc 76be bd0b 6f3c
00000230: e0c7 96bd 9ead 413d 5271 c33d d814 343d
00000240: b42d 203e a11b 5e3e 5916 a1be ce83 dbbd
00000250: 5e3e 8c3d 141c 8cbe b98b 173c 6990 cdbd
00000260: b712 86be 5ac0 d43d fd65 91bd 3e67 293d
00000270: 1839 44bd ec26 74be 44c1 bbbd 2301 26be
00000280: 3133 04be a417 e0bb 2a29 283b e774 31be
00000290: 27ad 11be 8d12 9abd babc b03e 59a1 2f3e
000002a0: 5243 173e 2356 043e d79c 513e a243 dd3d
000002b0: 0e04 c0bd f866 053e 6066 593e 2907 693e
000002c0: 9cb3 683e 0475 813e 8da8 163e 642a 513e
000002d0: e26b 32be c21f ac3e 1ac4 d93e 8f17 5f3d
000002e0: 1263 4a3e 77e0 80bd 3deb e83e 93e8 cbbe
000002f0: 98ec 4b3e 80e9 1dbe ec0c 05be 02c0 6c3e
00000300: 4c8c d4bd 3700 eabd 6b73 7bbc bc00 753e
00000310: 86de 093f 90aa 05bf b09a aabd 04a9 f5bc
00000320: 654b 86be 6276 0bbe dccc c13d 701a 273d
00000330: 1fb5 acbe 085e d93d c9a1 0ebe 37df 3c3f
00000340: 2352 5abd 2fba 3c3e f809 aebd 329f b53c
00000350: 9e8f 043e 568c 823c ff70 cf3d 2fef bebe
00000360: c405 b2be bbf7 953e 1100 9abe 2209 853e
00000370: a4a4 463d 8a32 5d3b 17ab 933d 177e 31bd
00000380: a4c4 86bd b6f6 753d 3912 10be 3ac7 d93d
00000390: 8695 e9be 5da2 663e 2142 053e c820 e83e
000003a0: 7a14 53be be76 be3d 1475 e03d 45ce f03d
000003b0: abea 06be 1387 c13e 78ae d3bd 1170 ed3d
000003c0: 6ade 403e 2da7 fe3c 7892 aebd 2c29 c73d
000003d0: 14b8 92bd e13a d2bc f24b 4fbe 8230 74be
000003e0: ac9f 513d 2d85 a6bd 7434 86be 64eb 5abe
000003f0: 6e4e ae3d 1944 f03c c7a1 cabd ba83 ae3e
0.1749318 0.16223699 0.4405924 0.1002189 0.30734068 0.036224447 0.067907006 -0.07604854
-0.09861406 0.019725785 -0.0033094734 -0.15165445 0.22693762 -0.27238402 -0.054072395 -0.371817
-0.3577108 0.1730337 -0.42437539 0.35148615 0.031362735 -0.19312234 0.18257755 0.1082661
-0.04044372 -0.096530445 -0.35344872 0.44410896 -0.24701816 -0.17543896 -0.19427371 -0.1147177
0.1495762 0.0755326 -0.33883753 -0.43554467 0.005327666 -0.12886031 0.09926008 0.27871266
0.20702493 0.026444301 0.037383728 -0.0652086 -0.32176316 -0.2993208 0.14164461 0.35640395
0.2795618 0.17647746 -0.2940356 -0.17029996 0.09200542 -0.007475254 0.10899197 0.010470968
-0.25862655 0.14297184 0.16171463 0.108590916 0.113686666 0.13726309 0.0135545265 -0.35399613
-0.051960994 -0.17467508 0.15749452 -0.054884635 0.20325632 0.0694855 0.15214722 0.1651459
0.16415419 0.12912662 0.16248521 0.46557558 0.07399632 0.06530501 -0.019694354 -0.05426937
-0.12820871 0.10864708 -0.09533873 0.18944687 0.21639575 -0.20884456 0.064898305 -0.572343
0.09218813 -0.03480056 -0.23872316 -0.14340769 0.08327635 0.10457638 0.19345672 -0.050463714
0.062849365 -0.14133197 -0.30305058 -0.08899625 0.04685245 0.10709421 0.21865936 -0.13567796
0.10273692 -0.23540749 -0.040427886 -0.35660234 0.18166022 0.18189485 -0.31215546 -0.23744786
0.09139701 0.057442807 -0.1702556 0.14153814 0.0904827 0.21900147 -0.44414234 -0.2121085
-0.4155729 0.19945236 0.34791452 -0.074825846 0.079289086 0.19991486 -0.3659284 0.120575495
0.015846554 -0.109141275 -0.011141029 0.15571879 -0.044840954 -0.036479075 0.3134329 -0.3764586
-0.41386303 0.1983526 -0.24119899 0.014590201 -0.07362342 0.047284715 0.095430985 0.04396519
0.15642434 0.21690227 -0.31462362 -0.10718499 0.06847833 -0.27365172 0.009249621 -0.1003731
-0.26186153 0.10388251 -0.07099531 0.041358225 -0.04790601 -0.23842973 -0.09167722 -0.16211371
-0.12910153 -0.0068387557 0.0025659301 -0.17329751 -0.14226209 -0.075230695 0.34518987 0.17151393
0.14771774 0.12923484 0.20469986 0.108039156 -0.09375773 0.1302756 0.21230459 0.22756638
0.22724766 0.25284588 0.14712735 0.20426327 -0.17423967 0.3361798 0.42532426 0.054465827
0.19764355 -0.06292813 0.45491973 -0.39825878 0.19914472 -0.15421104 -0.1299321 0.2312012
-0.10378322 -0.11425822 -0.015347342 0.23926061 0.5385517 -0.5221338 -0.083302855 -0.02998782
-0.26229396 -0.13619378 0.09462902 0.040796697 -0.33731934 0.10613638 -0.13928904 0.737781
-0.053300988 0.18430398 -0.08497995 0.022170637 0.1294541 0.015936058 0.10128974 -0.37291858
-0.34770024 0.29290566 -0.30078176 0.2598353 0.048496857 0.0033752047 0.07210367 -0.04333314
-0.06580475 0.060049735 -0.14069451 0.106337026 -0.4562189 0.22522874 0.13013507 0.4533751
-0.2061328 0.09299992 0.10959831 0.11758093 -0.13175456 0.37798366 -0.10336012 0.115936406
0.18834844 0.031085575 -0.085240304 0.0972465 -0.07164016 -0.025662841 -0.20243815 -0.2384663
0.051177666 -0.0813087 -0.26211894 -0.21378857 0.08511053 0.029329346 -0.09894138 0.34084874

fc1.bias f4 [49]
00000000: ffad 9b3d 8aaa 30be dccf dbbd 17c4 873d
00000010: 5063 c7bc 5d1b a5bd 8b0e d93c ef1a 343e
00000020: 0410 a0be 7d2a 62be 2ca6 78be 9afb 1d3e
00000030: a5bf 6bbe 8214 863e 8fb3 cfbe ad84 a1be
00000040: 72d1 52be fbd6 57bd 2d90 88be dd82 5f3d
00000050: 1119 a23d 9564 3cbd fb28 ae3d 4ce1 9cbd
00000060: cebb 31bd fec5 4fbe 5289 69be 806b b7be
00000070: d031 c2be c675 60bd 8bbb e53d 6f0e da3c
00000080: 1be0 26be 462a 1b3e 894e 70be e184 a5bd
00000090: 2b6a 183e 0920 a63d 9012 0fbd 374a 50be
000000a0: 1510 173d 0d88 823d 9c0b 593d e3d7 12be
000000b0: 50ed 3d3e 0b48 c5be affc f2bc 1328 f2be
000000c0: dc91 67be
0.076015465 -0.17252555 -0.107330054 0.06629198 -0.024339348 -0.0806186 0.026496192 0.175884
-0.3126222 -0.2208652 -0.2428214 0.1542801 -0.23022325 0.2618752 -0.4056668 -0.31546536
-0.2058771 -0.052695256 -0.26672497 0.05456816 0.07914937 -0.04599436 0.0850391 -0.076601595
-0.043391995 -0.20290372 -0.2280629 -0.35824203 -0.3792863 -0.054799818 0.112174116 0.02661821
-0.16296427 0.15152845 -0.23467459 -0.08081985 0.1488425 0.08111579 -0.034929812 -0.2034081
0.03688057 0.06373606 0.052989587 -0.14340167 0.18547559 -0.38531527 -0.029661505 -0.472962
-0.22614235

fc2.weight f4 [29, 49]
00000000: 3e8a 163d c764 073d b8a3 043f cf3e 6bbc
00000010: a475 33be 2e3d 80bd 8c25 f83c 9581 a4bd
00000020: a9a8 d13d cf2c f1be 802d 143f 9820 c7bb
00000030: 3f9a 86bd 04d0 a33d 76f4 973d 7c29 163f
00000040: 0fca ae3d 97c8 843e e64b 3f3e 2493 d1bd
00000050: fd58 22be dfbc fc3c 2cb7 e1bd 1b48 5cbd
00000060: 168c 8dbe ee21 f53d 1ee9 33bc c01d 193f
00000070: db4a b13e f02b 1e3e 6d81 bfbd 1aa0 963e
00000080: a39f cfbb 3051 f03c a131 263e f368 af3d
00000090: 936a 84bd bda8 b43e 8e63 963e 650b 973e
000000a0: 52bc c63d 218e 6dbc 5c28 c1bd 34e4 37bc
000000b0: 6a89 38be 6bff 0e3f 9ecc 633e 302c 8c3e
000000c0: 56d5 8c3e a523 143f 8876 81bb c98c 9cbe
000000d0: f88e aabd 33e0 04bd c4a4 063a 5ae6 223f
000000e0: 687c 823e 9195 27be 5dd8 89bb 0ef6 883e
000000f0: 7233 b8bd 1525 663c 88fa 48bc 7698 a3bd
00000100: 0f16 53be 58d6 f53d 3c8e cfbd 3a7b c3be
00000110: 9d01 b73e 1633 e63d 9a92 93bd 97b1 c03e
00000120: fb65 643e e297 743e ff0f 14be 0687 d33e
00000130: a4b2 dcbd d86d 97be b773 073e e930 103f
00000140: f94e 92be 416d 273e b0f4 813e 1bea debc
00000150: 579a 0e3f 6dbf 783d 0d07 f1bd 6ebc 1c3c
00000160: 73e9 53be c395 653e cbf8 803e ba9c f13e
00000170: 61cc 053e a0cd 0a3d 25ee 10be f190 0b3d
00000180: 1a79 17bf 564a 093e 8f87 61be a13c ed3c
00000190: 93c4 133a ceea 543c d21b 83be 80c6 5ebe
000001a0: c6c2 d0be 8022 4ebe ebd7 8c3d 5358 b83d
000001b0: d7bc 043d 39c4 a63e c848 4bbe 8e03 333e
000001c0: d968 353a c0df 9bbd 2a67 0b3d afcd aa3e
000001d0: 5806 943c 1e65 f8be c13d 3cbd cab8 733d
000001e0: 9072 aabe 74da 8d3c efe0 4bbd 2819 883e
000001f0: b139 98be e3a8 353c 5ddc bebd b507 783e
00000200: 5b5e cabe 47a0 023d f30c e8be bd61 073e
00000210: 6ec2 77be e1c1 a9be d25d 6d3d 073d 733e
00000220: 80ec 023e c82e 103e bb82 debd 6689 a1bd
00000230: af71 dcbe 8716 88be 30b0 863e a71f 6cbc
00000240: 149b 1c3e a547 7b3c 789e 10be f68c d43e
00000250: b5b3 bbbd 859e 36be 04a7 92bc 548f 173e
00000260: 921b 48bd b932 133f 6494 bb3e 196b 1abe
00000270: d55b 8e3c bdef 683e bf5a c6bd 75e7 123d
00000280: efd6 373d eba6 bbbb 3bab d7bd 886d c83d
00000290: 9bf2 76be b868 68be 4268 d43e 5b1d 273e
000002a0: e2c3 86bd 2ecb fb3e 9c0c d03d 577e 8d3d
000002b0: 7fbf cebd 4cd6 973e d759 00bc a31e 88be
000002c0: bb45 d13d 00eb f63e 9387 c3be 9cd7 ca3e
000002d0: c095 223e e424 ac3e b7c9 023f 5003 cebb
000002e0: f778 29be 5488 223d 2cf5 28be bc6a 413e
000002f0: 0a97 123e 2554 be3e 6c7b 743e ac31 67bd
00000300: 9a16 de3c 05ae 40bd e314 d9be 0454 1c3e
00000310: c81e dcbc ed36 58be 91ef a8bb 4d9f bf3c
00000320: 459f da3a 1e0a 57bc 732a 89bc a8a2 303d
00000330: b0e4 0e3d e64a 153f 7c31 4ebe 62a4 013f
00000340: 844d d7bc ca32 e93e efcb bb3b eb45 3abe
00000350: 06ee 73be 709f 5b3e eaec 3d3c 7c0a 383d
00000360: 41a5 ad3e aeba eb3c 88f7 683d 1b62 9e3d
00000370: c848 3b3f 7fde 733e 939f 88bd 029d 1cbd
00000380: fab0 90bd eea5 103d 0359 dd3d 2671 23bc
00000390: bec3 76be c43c aabd 09a3 1ebe b9af 7abd
000003a0: df3e 033f 841e e53d 36e1 edbd c39f 38bd
000003b0: 97aa 0abe 8fad a73d ea84 27bc bcea 01be
000003c0: 899d c93e 2bf3 c4bd fe51 16be bf83 733c
000003d0: 3fe4 5bbe b313 223e 009b 7dbc a78c fabe
000003e0: 15e1 843b 0185 fe3d 668c 2a3e 9ffd f63c
000003f0: ec7c 443e 9215 0dbe 1cd8 d13e ee8c acbe
0.03675293 0.033055093 0.51812315 -0.014358236 -0.17525345 -0.06261669 0.030291341 -0.08032528
0.102372475 -0.471045 0.5788193 -0.0060768835 -0.06572389 0.0799866 0.07419674 0.5865705
0.08534633 0.25934288 0.18681297 -0.10233143 -0.15854259 0.03085178 -0.110212654 -0.053779703
-0.2764594 0.11969362 -0.010980872 0.5981102 0.34627423 0.15446448 -0.09350858 0.29419023
-0.006336169 0.029335588 0.1622987 0.08564939 -0.0646564 0.35284987 0.2937283 0.2950088
0.09703888 -0.014499218 -0.09431526 -0.011223841 -0.1802117 0.55858487 0.22246024 0.27377462
0.27506512 0.5786689 -0.0039508976 -0.3057616 -0.083280504 -0.032440376 0.00051362463 0.6363274
0.2548554 -0.16365649 -0.0042067007 0.26750225 -0.089941874 0.014046927 -0.012266763 -0.07988064
-0.20613883 0.120037735 -0.10134551 -0.38179952 0.35743418 0.112402126 -0.072056964 0.3763549
0.22304527 0.23886064 -0.14459227 0.41313952 -0.107762605 -0.29575992 0.13227735 0.5632463
-0.28575876 0.16350271 0.25381994 -0.02721124 0.55704254 0.060729433 -0.11768923 0.0095664095
-0.20694523 0.22420411 0.25189814 0.47189885 0.13066246 0.033887506 -0.14153345 0.034073774
-0.5916916 0.13407263 -0.22024368 0.028959574 0.0005636897 0.012995435 -0.25607163 -0.21755409
-0.407736 -0.20130348 0.068771206 0.090012215 0.032406654 0.3257158 -0.19851983 0.17481825
0.00069202256 -0.07611036 0.03403393 0.3336005 0.018069431 -0.48514646 -0.04595733 0.0595024
-0.3329053 0.01731608 -0.04977506 0.26581693 -0.29731515 0.011087629 -0.09319375 0.2422169
-0.39525113 0.031891134 -0.4532238 0.13220878 -0.24195263 -0.3315573 0.057950802 0.23753749
0.1278553 0.14080346 -0.108647786 -0.07887535 -0.43055484 -0.26579687 0.26306295 -0.014411843
0.15293533 0.015336906 -0.14122951 0.41513795 -0.09165136 -0.17833908 -0.017901905 0.14800769
-0.048854418 0.5749927 0.3663665 -0.15079917 0.017377773 0.22747703 -0.09685277 0.035865266
0.04488271 -0.0057266853 -0.105307065 0.097865164 -0.24115984 -0.22696197 0.41485792 0.16319792
-0.065803304 0.4917845 0.10158655 0.06908863 -0.10095119 0.29655683 -0.0078339195 -0.26585874
0.10218378 0.48226166 -0.38189372 0.39617622 0.15877438 0.33621895 0.5108904 -0.006287016
-0.1655005 0.039680794 -0.16499776 0.18888372 0.1431543 0.37173572 0.23875207 -0.056443855
0.027110387 -0.047040958 -0.42398748 0.15266424 -0.026870146 -0.21114703 -0.0051555117 0.02339139
0.0016679546 -0.013124971 -0.016743874 0.04312387 0.034886062 0.5831741 -0.20136064 0.50641453
-0.02628208 0.4554656 0.005731098 -0.18190734 -0.23821267 0.2144754 0.011592129 0.044931874
0.3391514 0.02877554 0.05687669 0.07733556 0.7315793 0.23815344 -0.06671061 -0.03823567
-0.070650056 0.035314493 0.10807993 -0.009975707 -0.24098107 -0.083123714 -0.1549188 -0.06120274
0.5126781 0.11187461 -0.11615221 -0.045074236 -0.13541637 0.081874005 -0.01022456 -0.126872
0.39378002 -0.09616693 -0.14679715 0.014862954 -0.21473788 0.15827827 -0.015478849 -0.48935434
0.004055152 0.12427712 0.1665512 0.030150233 0.19188279 -0.1377776 0.4098519 -0.3370127

fc2.bias f4 [29]
00000000: 354f 53bd 368b 853e f620 fd3d eb9f 193e
00000010: 7031 253e b908 c83d 3bee 3f3d 11cd 793d
00000020: 884c 943d 798b b13d 6ba5 823d 11e8 be3e
00000030: 55e8 663e d1c7 913e 3a2d e03d a81a 073e
00000040: 9747 933e eea4 b23e 29d5 213d f888 1c3e
00000050: 2352 dc3c f9aa 033e 7880 293e 612c a83c
00000060: 1d4d af3e 5a96 133e 5694 3f3e 0fd6 b33e
00000070: 7567 2b3e
-0.05158921 0.26082772 0.123598024 0.1500241 0.1613214 0.09767289 0.046858054 0.060986582
0.0724116 0.086691804 0.06379207 0.37286428 0.22549565 0.2847276 0.10946126 0.13193762
0.28765556 0.34891456 0.039509926 0.15286624 0.026894635 0.1285819 0.16552913 0.020528974
0.3423852 0.14412823 0.1870893 0.3512425 0.16738684

fc3.weight f4 [4, 29]
00000000: 557a 5f3e dcc8 6cbe 4846 ef3e ea19 cdbe
00000010: 99f3 a53e abdf b1bd 2f20 9a3e bee9 ceba
00000020: 751e 27be 55cf 9cbe 1f79 aa3e 9fa8 573e
00000030: 14cd a33e 3286 023e 6fcc c13e 3692 a9be
00000040: e11a 8c3e 5e6b 883e b949 733e 5e22 823e
00000050: e009 413e 5c86 293e cd36 9d3e 6304 35be
00000060: 9e2f 693e 2d2e 303e 5048 d23e 9e1e 053e
00000070: d3e2 4bbe 227e 7e3e d1b3 bdbe 6f95 9dbe
00000080: 6e60 89bd 4c48 0ebf 76a5 acbe d4a6 b63e
00000090: a344 083f 3bb8 febd 0e83 2b3f 6cd8 32bf
000000a0: e8aa a23e 6925 4ebe 8d49 c3be 3db2 0dbf
000000b0: 81d0 27be 2ff4 983e d3c2 983e 5448 8d3e
000000c0: 1b3c d03d bf36 743e 9d7e d03e 3763 a63e
000000d0: 64f1 92be 5361 6d3e 1046 763e 1528 22bf
000000e0: e562 17bf 5045 253f be82 e0be b21d 983e
000000f0: ba75 8abd 45c0 993e cbf6 b03e 0a1a 2d3f
00000100: a3d4 f0be ce03 aebe 613a 3ebe b131 68be
00000110: 4ded 963d 68c0 9f3e 0664 be3e bf3d 343f
00000120: f319 723e 6277 953e f80c a93e 924d 703e
00000130: 667f 06bf ab16 52be e933 14bf 6d31 c7be
00000140: f1eb 71be 6504 67bd 5a6a 793e 1aab f1be
00000150: b1cf 32be 0a89 773e 8353 83be db48 9f3e
00000160: a36c b53e 0752 03be f4f2 a83e e55a a6be
00000170: d76b 9ebe ce30 33be 7987 0dbe 5f51 f23e
00000180: 75ca 41be 35b1 8c3e 8d7d 11bf fdeb 353e
00000190: 98c2 75be e197 5fbe f596 9c3e 71ce 1bbf
000001a0: 32c7 1abf 3420 9f3e e8ee f7be 6d7d 983e
000001b0: 11f4 aabe d9d1 e0be c3d9 cc3e b215 1abf
000001c0: 25ff d2be 7f45 793e acd3 853e 6ed1 0ebe
0.2182401 -0.23123497 0.46733308 -0.40058833 0.32412413 -0.086852394 0.3010268 -0.0015786213
-0.16320212 -0.30626932 0.33295533 0.21060418 0.319924 0.12746504 0.37851283 -0.33119363
0.27364257 0.26644415 0.23758592 0.25416845 0.18851423 0.1655516 0.30705872 -0.17677455
0.22772071 0.17205115 0.41070795 0.12999961 -0.19910745 0.24852803 -0.37051252 -0.3077807
-0.06707846 -0.55579066 -0.33719987 0.35674155 0.5322973 -0.12437483 0.6699685 -0.69861484
0.31771016 -0.20131458 -0.38142052 -0.55350095 -0.16388132 0.29873797 0.2983614 0.27594244
0.10167714 0.23849009 0.40721598 0.3249757 -0.2869979 0.23181657 0.24050164 -0.6334241
-0.59135276 0.6455889 -0.43849748 0.29710156 -0.06760736 0.30029503 0.34563288 0.6761786
-0.4703723 -0.33987278 -0.18576957 -0.22675206 0.0736948 0.31201482 0.37185687 0.7040672
0.23642711 0.29192644 0.33017707 0.2346709 -0.52538145 -0.2051646 -0.5789171 -0.38904896
-0.23625161 -0.056400675 0.24356976 -0.47200853 -0.1746204 0.2417337 -0.25649652 0.31110272
0.35434446 -0.1282426 0.3299786 -0.32491222 -0.3094165 -0.17499086 -0.1382121 0.47327706
-0.18924887 0.27478948 -0.568322 0.17765804 -0.24000013 -0.21835281 0.3058392 -0.6086188
-0.604602 0.31079257 -0.48424459 0.29783192 -0.33389333 -0.439101 0.4000989 -0.60189354
-0.41210285 0.24342917 0.26138055 -0.13947079

fc3.bias f4 [4]
00000000: 5842 93bd 2a76 d33e ad7d 1a3f 3217 303f
-0.071903884 0.4130109 0.60348016 0.68785393
