models/BP_model.pth (torch, 12575 bytes, 6 tensors)

fc1.weight f4 [49, 20]
0.22164041 0.15842305 0.07932213 0.011576538 0.16389869 0.09873678 0.027631953 0.08462905
0.06191216 0.045702096 -0.17144278 -0.19019102 0.20695633 -0.16884643 -0.02858487 -0.18975802
-0.18962187 0.107092954 -0.1524901 0.0636433 -0.031578917 -0.120165944 0.13605918 -0.15263811
0.1715484 -0.08370423 -0.089751065 -0.033187408 -0.08793779 -0.20577204 -0.19404808 -0.050836608
-0.07640177 -0.048955567 -0.15733147 -0.19382638 0.1131603 0.027673805 0.21355528 -0.009109838
0.08017877 0.06490719 0.1336828 0.13180225 -0.20769255 -0.1056248 0.1507314 0.09084666
0.02641554 0.040171906 -0.051854666 0.091259405 0.044401012 -0.014661303 0.1618284 0.07174171
-0.092141494 -0.016850935 0.059729144 -0.19111551 0.12053115 0.11874798 0.10187283 -0.0883386
0.055780057 -0.16544083 0.02719957 -0.0052397074 0.07183578 0.0378616 0.09919238 0.06496925
0.08594871 0.035054687 -0.20565663 0.20220461 -0.056627013 -0.010570343 -0.026297027 -0.13334091
-0.16966262 0.15658337 -0.17981477 0.2135283 0.22238241 -0.14097105 -0.19812314 -0.09439871
0.114441134 0.121841416 -0.01885082 0.041610755 0.06282195 0.080995895 0.19833435 -0.21214196
-0.026078328 0.03563403 -0.13077193 0.03403496 0.18524656 -0.058945045 0.20951591 -0.10275899
0.17384344 -0.18069266 -0.20764023 -0.006544755 0.22470148 0.16793612 -0.17096701 -0.21207742
-0.008603348 0.06991766 -0.21381783 0.14000198 0.13895687 0.20345737 -0.18983059 -0.05413896
-0.23013714 0.02976325 -0.18300484 0.11321701 0.032892276 -0.015579357 -0.14633328 -0.0010669089
-0.041869 0.14698333 -0.19114627 -0.0060202642 -0.072983876 -0.021306172 0.18844938 -0.17054422
-0.16989066 0.10555447 -0.039874993 -0.03174579 0.018498095 -0.012564028 -0.13149953 -0.11687502
0.19868809 0.0436833 -0.10689528 0.2016463 0.18642375 -0.06495661 -0.11930313 0.1497969
-0.17349766 0.17637935 0.019997802 0.06417204 0.020156123 -0.042816494 -0.08437055 -0.0873044
-0.12750827 -0.021555223 -0.11827639 0.08510229 -0.11741883 -0.15075494 0.14826605 -0.05633443
0.11888552 0.09068601 0.17293425 -0.020346811 -0.1889521 -0.072957434 0.14351568 0.22495733
0.21492998 0.22899242 -0.005833089 -0.10633995 0.018875863 0.18722604 0.12267081 0.11179731
0.0055634067 0.011909329 0.17632964 0.00051103125 0.13189174 0.01228175 -0.2026211 0.20909037
-0.08537927 -0.053040035 -0.047636963 0.08799048 0.21786997 -0.19591825 -0.20185785 0.08563528
-0.20613766 -0.12943 -0.1093349 -0.101288036 -0.04255693 0.07520509 0.17510046 0.22790954
0.12682593 0.0373057 -0.2117354 0.056622624 0.07125918 -0.12220447 -0.0831057 -0.14126699
-0.114444286 -0.08225236 -0.09862224 -0.17900658 -0.01168275 0.10807563 0.035181716 -0.022463921
0.054264974 -0.0014118823 -0.14585361 0.00037629966 -0.07932784 0.04613309 -0.07496836 0.23401435
-0.05654171 0.12108665 -0.1037145 -0.023415988 -0.07978604 0.21329527 -0.035001576 0.18057097
0.18789464 0.034740876 -0.20965227 -0.018630058 -0.058763847 0.1500571 -0.10327692 0.0018194106
-0.16097091 0.03874314 -0.14000157 -0.20642047 0.18964961 0.010431042 -0.19887981 0.21181586
00000000: b4f5 623e a739 223e a473 a23d 85ab 3d3c
00000010: 0fd5 273e 8236 ca3d 685c e23c ff51 ad3d
00000020: 9b97 7d3d 1f32 3b3d b28e 2fbe 6fc1 42be
00000030: 5cec 533e 14e6 2cbe d12a eabc ed4f 42be
00000040: 3c2c 42be 8d53 db3d 5d26 1cbe 6b57 823d
00000050: e558 01bd 9019 f6bd 1953 0b3e 2a4d 1cbe
00000060: 62aa 2f3e 206d abbd 68cf b7bd 85ef 07bd
00000070: ba18 b4bd e8b5 52be 8ab4 46be 0c3a 50bd
00000080: 8878 9cbd a285 48bd 801b 21be 6c7a 46be
00000090: 96c0 e73d 2db4 e23c 3cae 5a3e 6e41 15bc
000000a0: c434 a43d 10ee 843d 25e4 083e 2bf7 063e
000000b0: 5bad 54be d151 d8bd 5559 1a3e d00d ba3d
000000c0: 6765 d83c 4c8b 243d 8f65 54bd 36e6 ba3d
000000d0: d6dd 353d f635 70bc 58b6 253e 51ed 923d
000000e0: aeb4 bcbd f90a 8abc 8ca6 743d c9b3 43be
000000f0: 09d9 f63d 2432 f33d b4a2 d03d deea b4bd
00000100: a179 643d 5269 29be a2d1 de3c dab1 abbb
00000110: a31e 933d c414 1b3d 6025 cb3d 990e 853d
00000120: e105 b03d 8195 0f3d a797 52be ba0e 4f3e
00000130: baf1 67bd 3b2f 2dbc dd6c d7bc 858a 08be
00000140: 0abc 2dbe 6457 203e 5d21 38be 2aa7 5a3e
00000150: 37b8 633e b75a 10be cbe0 4abe 1c54 c1bd
00000160: 1d60 ea3d fe87 f93d 096d 9abc 0a70 2a3d
00000170: cba8 803d 2de1 a53d 2918 4b3e be3b 59be
00000180: 38a2 d5bc fdf4 113d 14e9 05be 3e68 0b3d
00000190: 46b1 3d3e 5c70 71bd 578b 563e 4e73 d2bd
000001a0: 0404 323e 7f07 39be a49f 54be 6275 d6bb
000001b0: 2518 663e 72f7 2b3e fa11 2fbe d32a 59be
000001c0: 0ff5 0cbc fd30 8f3d 10f3 5abe ae5c 0f3e
000001d0: b64a 0e3e 2157 503e f362 42be d0c0 5dbd
000001e0: 12a9 6bbe 0fd2 f33c 9f65 3bbe 52de e73d
000001f0: 0dba 063d 8f40 7fbc 64d8 15be 86d7 8bba
00000200: d47e 2bbd cc82 163e d9bb 43be a345 c5bb
00000210: 9278 95bd 488a aebc e0f8 403e 25a3 2ebe
00000220: d1f7 2dbe f12c d83d f653 23bd e007 02bd
00000230: 5189 973c 5ad9 4dbc d0a7 06be 2c5c efbd
00000240: e474 4b3e 43ed 323d eaeb dabd 5e7c 4e3e
00000250: dee5 3e3e f907 85bd 3355 f4bd 5c64 193e
00000260: 5fa9 31be ca9c 343e 6ed2 a33c a16c 833d
00000270: 741e a53c 5960 2fbd 78ca acbd a6cc b2bd
00000280: 8791 02be 9494 b0bc e43a f2bd 1c4a ae3d
00000290: 4979 f0bd 815f 1abe 0ed3 173e eebe 66bd
000002a0: 407a f33d 96b9 b93d ad15 313e 5bae a6bc
000002b0: a97c 41be b56a 95bd c6f5 123e 375b 663e
000002c0: 9b16 5c3e fd7c 6a3e 7f23 bfbb c2c8 d9bd
000002d0: 8ea1 9a3c 2fb8 3f3e d53a fb3d fdf5 e43d
000002e0: 3d4d b63b 591f 433c c28f 343e baf6 053a
000002f0: a10e 073e 6539 493c e87b 4fbe c91b 563e
00000300: 54db aebd 8240 59bd fa1e 43bd 5a34 b43d
00000310: 4e19 5f3e cb9e 48be d3b3 4ebe 8d61 af3d
00000320: c015 53be 4c89 04be faea dfbd 1a70 cfbd
00000330: 2d50 2ebd 2005 9a3d 894d 333e 1e61 693e
00000340: a8de 013e ddcd 183d 2ad1 58be 20ed 673d
00000350: 55f0 913d 5646 fabd 5233 aabd 4ba8 10be
00000360: c461 eabd ed73 a8bd 75fa c9bd 804d 37be
00000370: 0169 3fbc c256 dd3d b41a 103d 4206 b8bc
00000380: f344 5e3d e90e b9ba a65a 15be 164a c539
00000390: a276 a2bd 0df6 3c3d 0389 99bd 75a1 6f3e
000003a0: 4898 67bd 47fc f73d 4568 d4bd e3d2 bfbc
000003b0: dd66 a3bd 136a 5a3e d05d 0fbd 99e7 383e
000003c0: 7467 403e 734c 0e3d 16af 56be 109e 98bc
000003d0: 5cb2 70bd 92a8 193e da82 d3bd 4a79 ee3a
000003e0: 8fd5 24be 20b1 1e3d 925c 0fbe e35f 53be
000003f0: 8233 423e f6e6 2a3c 26a7 4bbe 42e6 583e

fc1.bias f4 [49]
0.14569953 -0.147646 -0.009929147 0.17353699 0.077466846 0.20035936 0.004120522 0.0040568146
-0.15508974 -0.21130453 -0.049538594 0.119541556 -0.00040101697 0.12096695 -0.18199064 -0.092288494
-0.19865473 -0.021474414 -0.036816113 0.015062937 -0.010255358 -0.0032252015 0.065033875 -0.20628314
-0.08357888 -0.113233835 -0.15135045 -0.18228595 -0.20058382 -0.0144516695 0.046799194 0.13808426
-0.09212847 0.120430544 -0.0019095574 0.0016957555 0.007180799 0.07120357 0.0036871054 -0.11112054
0.039526366 0.015027785 -0.013883084 0.07895534 0.14435337 -0.09162679 0.021293053 -0.20677033
0.044723894
00000000: 4232 153e 8330 17be dcad 22bc aeb3 313e
00000010: f0a6 9e3d 012b 4d3e 7205 873b 07ef 843b
00000020: d8cf 1ebe 3760 58be fbe8 4abd 34d2 f43d
00000030: 963f d2b9 85bd f73d c15b 3abe c001 bdbd
00000040: 256c 4bbe 1ceb afbc 7ecc 16bd 89ca 763c
00000050: 1706 28bc e75d 53bb 7b30 853d e33b 53be
00000060: 672b abbd 24e7 e7bd 9dfb 1abe 2ba9 3abe
00000070: d865 4dbe b2c6 6cbc 83b0 3f3d f665 0d3e
00000080: daad bcbd 4aa4 f63d 1d4a faba 1d44 de3a
00000090: e84c eb3b 2dd3 913d 5da3 713b 2a93 e3bd
000000a0: 66e6 213d 1937 763c e075 63bc 56b3 a13d
000000b0: 5fd1 133e d4a6 bbbd c56e ae3c 9abb 53be
000000c0: 6730 373d

fc2.weight f4 [29, 49]
0.10606213 -0.055431325 0.12801918 0.08274874 -0.12909986 -0.06378313 -0.08982938 0.0802886
0.05803871 -0.11181105 0.08606829 0.058059458 -0.045347024 0.059850376 0.08026718 0.105916895
-0.022996347 0.10479559 0.09331688 0.096577644 0.047343403 0.046093 0.08422391 -0.08195735
-0.0768755 -0.027154423 -0.12852219 -0.041310925 0.00781331 -0.018691137 -0.016991407 -0.05135736
-0.06352508 0.1365786 -0.06947862 0.10350218 0.051013898 0.0186871 0.04585289 0.06321114
0.05693336 -0.11889671 -0.09826232 -0.06554766 -0.015431143 0.030125942 0.044216566 0.1424362
0.09631935 0.08073002 -0.0018715388 -0.072038285 -0.011108667 -0.1243972 0.05411701 0.13291827
0.124439925 0.1319234 -0.12786634 -0.0028546755 -0.097125836 -0.039030556 -0.09760463 -0.0591786
-0.02752289 0.0323314 0.07292944 -0.1105529 -0.014811375 0.13515675 -0.043445673 -0.13306902
0.08519394 0.041823685 -0.088669084 0.1467785 -0.039103694 0.08927634 0.002975749 0.10692225
0.12509054 0.07282498 0.1201112 -0.057022557 0.10404386 0.08605641 -0.06324086 0.031525183
-0.08489467 0.06489431 0.084755816 0.11324902 0.12050721 0.028901357 -0.10424326 0.02993095
-0.13127004 0.06488106 0.09970031 -0.12665911 -0.09190891 -0.009494294 -0.114553824 -0.14003451
-0.14712599 -0.0069260094 0.046868455 0.12228464 -0.030175569 0.13100107 -0.023562942 -0.007505844
0.10458008 0.106711976 0.024267957 0.064307466 0.11250998 -0.0497801 0.051600073 0.0153083345
-0.1065423 0.083854735 0.055693373 -0.101037726 0.028115714 -0.038705334 -0.040005952 0.09003679
0.054017257 0.010522648 -0.13182025 0.1069214 -0.12480884 -0.008729592 -0.13363099 0.0057930537
0.11702158 0.00010630945 -0.09783907 0.026101476 -0.0034184724 -0.10385415 0.08807463 0.10104744
0.07544874 -0.02282851 -0.08800968 -0.089553 -0.09183444 0.114317276 0.05721527 0.060413808
-0.14861058 0.14407092 0.13233246 -0.05518303 -0.11067428 0.081392586 -0.05680365 -0.06511245
-0.091073275 0.020363526 -0.08817204 0.0017822277 -0.13450256 -0.06079985 -0.04002616 -0.019342307
-0.07497032 0.12821816 -0.0722009 -0.13208316 -0.027152117 -0.05634757 0.12871008 -0.065199375
0.038264565 -0.06489855 -0.111021474 0.10789201 0.11181577 0.11588379 -0.0024103276 -0.11257847
-0.054436926 0.095710255 -0.050869327 0.011116765 -0.1169536 -0.058914043 0.1234211 -0.11126625
-0.015603 -0.13139717 -0.11204933 -0.01587685 -0.017877974 -0.13881409 -0.032413755 -0.101373
0.06808972 0.10168015 -0.10533502 -0.027944937 -0.009931667 -0.023551535 -0.04761807 0.12479924
-0.028077813 0.049699806 0.008095518 -0.058260955 -0.13728349 0.10901554 0.12816054 0.032886326
-0.030967906 -0.019440424 -0.03784276 0.007856818 0.061948698 -0.1325597 -0.1131048 0.02791251
-0.004254482 0.12052525 0.13472725 -0.117125496 -0.051528055 -0.1016655 -0.013568848 -0.083984256
-0.010847675 0.11852934 0.13349463 -0.09415475 0.015521984 0.008869325 -0.026422292 -0.06574402
-0.031226024 -0.11153517 0.08489073 -0.009678494 0.09106682 0.12851478 0.098454386 -0.006675373
-0.058493257 0.10788105 0.123782724 0.039563455 0.09198203 -0.028182115 0.03136031 -0.1327999
00000000: 1a37 d93d f50b 63bd 7617 033e 2c78 a93d
00000010: c132 04be bba0 82bd 77f8 b7bd 596e a43d
00000020: 00ba 6d3d 31fd e4bd 9244 b03d c1cf 6d3d
00000030: cdbd 39bd ab25 753d 1f63 a43d f5ea d83d
00000040: d662 bcbc 129f d63d ec1c bf3d 80ca c53d
00000050: 28eb 413d 03cc 3c3d 967d ac3d 41d9 a7bd
00000060: e770 9dbd f472 debc 529b 03be a535 29bd
00000070: 6603 003c 281e 99bc 9031 8bbc 185c 52bd
00000080: 7019 82bd 43db 0b3e cf4a 8ebd f3f8 d33d
00000090: f3f3 503d b015 993c 3dd0 3b3d d874 813d
000000a0: f432 693d 1e80 f3bd c13d c9bd da3d 86bd
000000b0: e8d2 7cbc aeca f63c 6e1c 353d ccda 113e
000000c0: 1443 c53d c855 a53d 6c4e f5ba cf88 93bd
000000d0: 2001 36bc f6c3 febd cca9 5d3d ba1b 083e
000000e0: 5cda fe3d ee16 073e 65ef 02be 8215 3bbb
000000f0: e9e9 c6bd 81de 1fbd f0e4 c7bd 4265 72bd
00000100: af77 e1bc ee6d 043d 085c 953d 8f69 e2bd
00000110: 69ab 72bc 8866 0a3e 17f4 31bd 3f43 08be
00000120: 297a ae3d 504f 2b3d 2398 b5bd 1a4d 163e
00000130: 322b 20bd 84d6 b63d c904 433b 0dfa da3d
00000140: bc17 003e 4325 953d dcfc f53d 7c90 69bd
00000150: f314 d53d 583e b03d 6d84 81bd 8d20 013d
00000160: 42dd adbd 4fe7 843d 7594 ad3d 1aef e73d
00000170: 7ccc f63d 8ac2 ec3c 7e7d d5bd c031 f53c
00000180: a76b 06be 5ce0 843d ad2f cc3d edb2 01be
00000190: bd3a bcbd f58d 1bbc 329b eabd 3565 0fbe
000001a0: 32a8 16be 94f3 e2bb 23f9 3f3d 5f70 fa3d
000001b0: c132 f7bc 2525 063e 1207 c1bc 95f3 f5bb
000001c0: 152e d63d cf8b da3d 98cd c63c a2b3 833d
000001d0: a26b e63d 38e6 4bbd 995a 533d cfcf 7a3c
000001e0: d932 dabd 08bc ab3d bc1e 643d deec cebd
000001f0: ed52 e63c 7c89 1ebd 48dd 23bd 3565 b83d
00000200: 3341 5d3d 2f67 2c3c e3fb 06be 9bf9 da3d
00000210: c79b ffbd 9006 0fbc 90d6 08be a8d3 bd3b
00000220: 03a9 ef3d 74f2 de38 da5f c8bd c3d2 d53c
00000230: 7308 60bb 7cb1 d4bd 7960 b43d f6f1 ce3d
00000240: de84 9a3d db02 bbbc 6b3e b4bd 9067 b7bd
00000250: b213 bcbd 2d1f ea3d 8f5a 6a3d 7874 773d
00000260: 5f2d 18be 5487 133e 2982 073e 9a07 62bd
00000270: 32a9 e2bd 28b1 a63d f2aa 68bd ad59 85bd
00000280: a084 babd 69d1 a63c 8b93 b4bd a399 e93a
00000290: 0abb 09be 4309 79bd 79f2 23bd c273 9ebc
000002a0: 0a8a 99bd 9f4b 033e 11de 93bd cf40 07be
000002b0: 1e6e debc b6cc 66bd 93cc 033e 4087 85bd
000002c0: 4ebb 1c3d 88e9 84bd 3a5f e3bd 7cf6 dc3d
000002d0: abff e43d 7b54 ed3d 96f6 1dbb 8a8f e6bd
000002e0: 41f9 5ebd bd03 c43d 5b5c 50bd 1823 363c
000002f0: 5e85 efbd da4f 71bd 34c4 fc3d 8fdf e3bd
00000300: baa3 7fbc fb8c 06be 1e7a e5bd 2b10 82bc
00000310: d474 92bc 4825 0ebe 49c4 04bd a69c cfbd
00000320: a072 8b3d af3d d03d e3b9 d7bd c8ec e4bc
00000330: 6eb8 22bc 26ef c0bc 2a0b 43bd be96 ff3d
00000340: 7103 e6bc 0692 4b3d 10a3 043c 0aa3 6ebd
00000350: 0b94 0cbe 8a43 df3d 843c 033e d0b3 063d
00000360: 68b0 fdbc 8641 9fbc 0301 1bbd e2b9 003c
00000370: ebbd 7d3d bbbd 07be 7da3 e7bd c7a8 e43c
00000380: 2f69 8bbb f1d5 f63d f1f5 093e 7edf efbd
00000390: 150f 53bd 0036 d0bd e04f 5ebc f0ff abbd
000003a0: 72ba 31bc 83bf f23d d1b2 083e 35d4 c0bd
000003b0: eb4f 7e3c a550 113c 9073 d8bc cda4 86bd
000003c0: b8cd ffbc 8d6c e4bd 31db ad3d 8c92 1ebc
000003d0: 3e81 ba3d 6199 033e 74a2 c93d 16bd dabb
000003e0: a096 6fbd bdf0 dc3d cc81 fd3d 4a0d 223d
000003f0: 1361 bc3d 2ede e6bc ab73 003d b2fc 07be

fc2.bias f4 [29]
-0.11526506 0.0857576 0.09287898 -0.079343386 0.04288815 -0.14221312 -0.11034366 -0.009072346
0.10339486 -0.042919632 -0.026844097 0.08363853 -0.01257373 0.0919473 0.00891685 -0.09361551
0.03240674 0.14647657 -0.07423875 0.060456224 0.01454583 0.073092 0.0029417498 -0.045249943
0.09553762 0.14183223 0.114347644 0.13767715 0.13959199
00000000: 1610 ecbd aea1 af3d 5637 be3d c97e a2bd
00000010: 7cab 2f3d 51a0 11be dbfb e1bd 2da4 14bc
00000020: afc0 d33d 7fcc 2fbd 27e8 dbbc ad4a ab3d
00000030: 0c02 4ebc de4e bc3d fb17 123c 7db9 bfbd
00000040: eebc 043d f4fd 153e 7c0a 98bd f2a0 773d
00000050: a251 6e3c 42b1 953d 5fca 403b 0158 39bd
00000060: 3aa9 c33d 783c 113e 192f ea3d 3dfb 0c3e
00000070: 34f1 0e3e

fc3.weight f4 [4, 29]
0.084370404 -0.0034432213 0.041381314 -0.08106002 0.04458473 -0.03683832 0.14959441 0.004061677
-0.11288894 -0.12727028 0.1179828 0.04303315 0.15917996 -0.010298973 0.08956635 -0.05572905
0.10659609 0.13719268 0.06381323 0.09791685 0.09592997 -0.017723424 0.09462916 -0.09218192
0.057009213 -0.013009665 0.13288184 -0.0019669328 -0.17339376 0.02595601 -0.119797185 -0.04030935
-0.021652523 -0.1456839 -0.14705393 0.1931733 0.11004838 -0.07821164 0.12455494 -0.15893196
0.12895718 0.054827005 -0.03674648 -0.15587887 0.011706499 0.02666144 0.1340046 0.11392824
-0.05402647 0.033121753 0.14824483 0.18752478 -0.051894564 0.0392417 -0.029636674 -0.10461418
-0.09809312 0.19626836 -0.11515465 0.021817869 -0.06992347 0.1071937 -0.030255105 0.057001814
-0.15994912 -0.0049836105 -0.16462414 -0.050694652 -0.048186652 0.12051108 0.15914588 0.17204452
-0.036801897 -0.0030444306 0.17525393 -0.022250216 -0.09038906 -0.048866346 -0.18943627 -0.068615854
-0.033635188 -0.117022544 0.06784524 -0.13963401 -0.13452126 0.041814152 0.030511016 0.15674531
0.1257479 -0.06290186 0.054220192 -0.1496859 -0.13298154 -0.041356735 0.021509 0.053845987
0.0045439242 -0.04875522 -0.15855278 0.08487534 -0.13175415 -0.12100426 0.10041086 -0.087472096
-0.06222927 0.064684235 -0.11969927 0.036122225 0.08727267 -0.09990768 0.028391955 -0.1454422
-0.12717606 -0.024085045 -0.04620854 0.0029202364
00000000: 64ca ac3d aba7 61bb 747f 293d cc02 a6bd
00000010: 7a9e 363d c7e3 16bd 472f 193e d117 853b
00000020: 5132 e7bd 2453 02be f7a0 f13d 8743 303d
00000030: 1200 233e 06bd 28bc 906e b73d 2544 64bd
00000040: 0d4f da3d 3d7c 0c3e 83b0 823d a188 c83d
00000050: ef76 c43d b730 91bc efcc c13d e0c9 bcbd
00000060: 7e82 693d 7d26 55bc 2d12 083e a8e7 00bb
00000070: 228e 31be b3a1 d43c 3a58 f5bd 6b1b 25bd
00000080: a260 b1bc 292e 15be 4e95 16be 39cf 453e
00000090: 0c61 e13d 6d2d a0bd a916 ff3d 0fbf 22be
000000a0: 5a0d 043e 4892 603d 7a83 16bd b69e 1fbe
000000b0: 9ecc 3f3c 1869 da3c 8038 093e 3653 e93d
000000c0: dc4a 5dbd adaa 073d 7ecd 173e 7f06 403e
000000d0: 658f 54bd e8bb 203d 9cc8 f2bc f63f d6bd
000000e0: 0ce5 c8bd 93fa 483e 33d6 ebbd 63bb b23c
000000f0: 0934 8fbd 5f88 db3d 8ed9 f7bc bc7a 693d
00000100: b4c9 23be 8e4d a3bb 3b93 28be 32a5 4fbd
00000110: 5e5f 45bd 83ce f63d 23f7 223e 702c 303e
00000120: 96bd 16bd 1285 47bb c475 333e 1646 b6bc
00000130: e61d b9bd 1428 48bd 95fb 41be 7886 8cbd
00000140: 0dc5 09bd 84a9 efbd 72f2 8a3d 38fc 0ebe
00000150: f1bf 09be 5145 2b3d 3df2 f93c d881 203e
00000160: 0fc4 003e b1d2 80bd fe15 5e3d 4347 19be
00000170: 502c 08be ae65 29bd a433 b03c 9c8d 5c3d
00000180: 33e5 943b 8eb3 47bd a95b 22be 1fd3 ad3d
00000190: 8fea 06be 15d1 f7bd 35a4 cd3d 9224 b3bd
000001a0: 1ee4 7ebd 2b79 843d e424 f5bd e6f4 133d
000001b0: 03bc b23d 669c ccbd 3f96 e83c cdee 14be
000001c0: 713a 02be 004e c5bc 2b45 3dbd 7061 3f3b

fc3.bias f4 [4]
0.11482441 -0.04363925 0.11314932 0.02208019
00000000: 0f29 eb3d 12bf 32bd d5ba e73d 84e1 b43c
